weights/tide_not_training_2024.ckpt (torch, 343272 bytes, 258 tensors)

net.input_linear.weight f4 [16, 1]
000000 51 d8 d6 be 25 1a c8 3d dc 9a 3c 3f 7f 51 4d bf
       -0.4196191 0.09770612 0.73673797 -0.8020248
000010 7c a7 96 3f 96 c8 86 3f f6 49 c4 bf 1a a3 24 bf
       1.1769862 1.0529964 -1.5335071 -0.64311373
000020 f6 d7 50 3f f9 fe e3 bf 18 5b 4b 3f cd 48 53 3f
       0.8157953 -1.7812186 0.79435873 0.8253296
000030 c4 75 e4 3f bc 77 c5 3f 27 0a bc 3f 8e 25 ee 3f
       1.7848439 1.5427165 1.4690598 1.8605211

net.input_linear.bias f4 [16]
000000 9d d8 13 bf 01 11 28 bf 31 66 f6 3e f5 00 07 bf
       -0.577524 -0.65650946 0.4812484 -0.52735835
000010 75 75 03 bf 0c b5 0f bf ab 07 f0 bd f2 7d 9d bd
       -0.513511 -0.5613563 -0.117202125 -0.07690038
000020 eb fe 2e bf f2 94 74 bf 6b 64 68 bf 3d b0 61 be
       -0.68357724 -0.9553977 -0.90778226 -0.22039886
000030 04 d2 0e bf a1 0d c7 3d 91 de 38 be 5e 64 ae bf
       -0.5578921 0.097193964 -0.18053652 -1.362438

net.day_embedder.pe f4 [1500, 16]
000000 00 00 00 00 00 00 80 3f 00 00 00 00 00 00 80 3f
       0.0 1.0 0.0 1.0
000010 00 00 00 00 00 00 80 3f 00 00 00 00 00 00 80 3f
       0.0 1.0 0.0 1.0
000020 00 00 00 00 00 00 80 3f 00 00 00 00 00 00 80 3f
       0.0 1.0 0.0 1.0
000030 00 00 00 00 00 00 80 3f 00 00 00 00 00 00 80 3f
       0.0 1.0 0.0 1.0
000040 a4 6a 57 3f 41 51 0a 3f 3e 39 9f 3e 6b 4e 73 3f
       0.84147096 0.54030234 0.3109836 0.9504153
000050 76 75 cc 3d 98 b8 7e 3f 5b 81 01 3d 3c df 7f 3f
       0.099833414 0.9950042 0.031617504 0.99950004
000060 57 d6 23 3c b9 fc 7f 3f 1c 3e 4f 3b ac ff 7f 3f
       0.009999833 0.99995 0.0031622713 0.999995
000070 6d 12 83 3a f8 ff 7f 3f 61 cb a5 39 ff ff 7f 3f
       0.0009999998 0.9999995 0.00031622782 0.99999994
000080 b7 c7 68 3f 33 11 d5 be 1b 54 17 3f ec 7b 4e 3f
       0.9092974 -0.41614684 0.5911271 0.8065784
000090 f8 6f 4b 3e a5 e5 7a 3f c8 70 81 3d f9 7c 7f 3f
       0.19866931 0.9800666 0.063203394 0.9980007
0000a0 3e d4 a3 3c e5 f2 7f 3f d8 3d cf 3b b1 fe 7f 3f
       0.019998666 0.9998 0.006324511 0.99998003
0000b0 68 12 03 3b df ff 7f 3f 60 cb 25 3a fd ff 7f 3f
       0.0019999985 0.99999803 0.0006324556 0.9999998
0000c0 c3 81 10 3e 26 70 7d bf c2 09 50 3f 58 2f 15 3f
       0.14112 -0.9899925 0.8126489 0.58275366
0000d0 6c 4e 97 3e ef 90 74 3f c0 ff c1 3d 4f d9 7e 3f
       0.2955202 0.9553365 0.094726086 0.99550337
0000e0 1f b9 f5 3c 83 e2 7f 3f 0d 6e 1b 3c 0d fd 7f 3f
       0.0299955 0.99955004 0.009486687 0.999955
0000f0 92 9b 44 3b b5 ff 7f 3f 10 b1 78 3a f9 ff 7f 3f
       0.0029999954 0.9999955 0.00094868336 0.9999996
000100 cf bd 41 bf 30 55 27 bf de 1d 74 3f b1 2e 9a 3e
       -0.7568025 -0.6536436 0.95358074 0.30113748
000110 d7 61 c7 3e a7 ca 6b 3f 88 2e 01 3e 69 f4 7d 3f
       0.38941833 0.921061 0.12615407 0.99201065
000120 db cb 23 3d 94 cb 7f 3f c9 3c 4f 3c c2 fa 7f 3f
       0.039989334 0.9992001 0.01264877 0.99992
000130 57 12 83 3b 7a ff 7f 3f 5e cb a5 3a f3 ff 7f 3f
       0.003999989 0.999992 0.0012649109 0.9999992
000140 10 7c 75 bf 2c 3c 91 3e 7f fc 7f 3f e9 72 29 bc
       -0.9589243 0.2836622 0.99994653 -0.010342338
000150 43 77 f5 3e 40 a9 60 3f 1d 3c 21 3e 81 ce 7c 3f
       0.47942552 0.87758255 0.15745588 0.987526
000160 f4 b6 4c 3d 19 ae 7f 3f 7e 85 81 3c cf f7 7f 3f
       0.049979165 0.99875027 0.015810724 0.999875
000170 dd d6 a3 3b 2e ff 7f 3f 33 3e cf 3a eb ff 7f 3f
       0.004999979 0.9999875 0.0015811383 0.99999875
000180 8c 0f 8f be b8 cd 75 3f 4e 78 72 3f 6d 3f a4 be
       -0.2794155 0.96017027 0.9471482 -0.3207964
000190 68 8c 10 3f 32 49 53 3f 6e 20 41 3e e3 67 7b 3f
       0.5646424 0.8253356 0.18860027 0.98205394
0001a0 d1 9c 75 3d 12 8a 7f 3f 43 6c 9b 3c 34 f4 7f 3f
       0.059964005 0.99820054 0.018972522 0.99982
0001b0 58 9b c4 3b d2 fe 7f 3f 08 b1 f8 3a e2 ff 7f 3f
       0.0059999637 0.999982 0.0018973658 0.9999982
0001c0 46 30 28 3f bd ff 40 3f 6e e8 4c 3f bc 74 19 bf
       0.6569866 0.75390226 0.8004216 -0.5994375
0001d0 72 eb 24 3f b3 cc 43 3f 50 d3 60 3e ea c0 79 3f
       0.6442176 0.7648422 0.2195561 0.9755999
0001e0 32 3e 8f 3d 81 5f 7f 3f a2 52 b5 3c f2 ef 7f 3f
       0.06994285 0.997551 0.022134129 0.999755
0001f0 c5 5f e5 3b 65 fe 7f 3f ed 11 11 3b d7 ff 7f 3f
       0.006999942 0.9999755 0.0022135929 0.99999756
000200 95 46 7d 3f f6 fd 14 be 7e 06 13 3f e5 91 51 bf
       0.98935825 -0.14550003 0.5743178 -0.8186324
000210 a5 a4 37 3f 5f 5b 32 3f 51 26 80 3e 02 da 77 3f
       0.717356 0.6967067 0.25029233 0.9681703
000220 50 aa a3 3d 65 2e 7f 3f 8a 38 cf 3c 08 eb 7f 3f
       0.07991469 0.9968017 0.025295515 0.99968004
000230 12 12 03 3c e7 fd 7f 3f 55 cb 25 3b ca ff 7f 3f
       0.007999914 0.999968 0.0025298197 0.9999968
000240 32 01 d3 3e d5 3f 69 bf ee 1f 95 3e a2 e6 74 bf
       0.4121185 -0.91113025 0.29125923 -0.9566442
000250 1c 88 48 3f d5 21 1f 3f 2d c2 8f 3e a9 b3 75 3f
       0.78332686 0.62161 0.28077832 0.95977265
000260 3e 12 b8 3d c2 f6 7e 3f ea 1d e9 3c 76 e5 7f 3f
       0.089878544 0.9959527 0.028456647 0.99959505
000270 3a 74 13 3c 59 fd 7f 3f bc 84 3a 3b bc ff 7f 3f
       0.008999879 0.9999595 0.0028460464 0.99999595
000280 f8 44 0b bf 64 cd 56 bf 97 70 a9 bc fb f1 7f bf
       -0.5440211 -0.8390715 -0.02068357 -0.9997861
000290 a4 6a 57 3f 41 51 0a 3f 3d 39 9f 3e 6b 4e 73 3f
       0.84147096 0.54030234 0.31098357 0.9504153
0002a0 76 75 cc 3d 98 b8 7e 3f 59 81 01 3d 3c df 7f 3f
       0.099833414 0.9950042 0.031617496 0.99950004
0002b0 57 d6 23 3c b9 fc 7f 3f 22 3e 4f 3b ac ff 7f 3f
       0.009999833 0.99995 0.0031622727 0.999995
0002c0 5c ff 7f bf 72 05 91 3b 1f 41 a9 be 8d 9b 71 bf
       -0.9999902 0.004425698 -0.33057496 -0.94377977
0002d0 2a 26 64 3f c3 3d e8 3e 8b 87 ae 3e e4 aa 70 3f
       0.89120734 0.4535962 0.34087786 0.9401076
0002e0 72 d3 e0 3d e8 73 7e 3f 68 73 0e 3d 5b d8 7f 3f
       0.1097783 0.9939561 0.03477803 0.9993951
0002f0 69 38 34 3c 09 fc 7f 3f 87 f7 63 3b 9b ff 7f 3f
       0.010999777 0.9999395 0.003478499 0.999994
000300 d8 5c 09 bf d0 06 58 3f 24 91 1b bf 56 4f 4b bf
       -0.53657293 0.84385395 -0.6076834 -0.7941793
000310 1d 9a 6e 3f f7 86 b9 3e 2c a9 bd 3e c3 c9 6d 3f
       0.9320391 0.36235783 0.3704313 0.9288599
000320 ac 2b f5 3d b5 28 7e 3f 19 65 1b 3d d2 d0 7f 3f
       0.119712204 0.99280864 0.03793821 0.9992801
000330 70 9a 44 3c 48 fb 7f 3f eb b0 78 3b 87 ff 7f 3f
       0.011999711 0.999928 0.0037947248 0.9999928
000340 22 20 d7 3e 6f 4e 68 3f 4c 14 53 bf 9d d9 10 bf
       0.42016703 0.9074468 -0.82452846 -0.5658205
000350 c0 ab 76 3f 9d f5 88 3e 3f 9a cc 3e c3 ab 6a 3f
       0.9635582 0.26749888 0.3996143 0.9166834
000360 d0 be 04 3e 00 d7 7d 3f 65 56 28 3d a1 c8 7f 3f
       0.12963414 0.9915619 0.041098017 0.9991551
000370 6a fc 54 3c 76 fa 7f 3f 26 b5 86 3b 72 ff 7f 3f
       0.012999633 0.9999155 0.00411095 0.99999154
000380 72 98 7d 3f d7 04 0c 3e b3 a8 75 bf 0a 0d 90 be
       0.9906074 0.13673721 -0.9596054 -0.28134948
000390 6f 46 7c 3f e7 0b 2e 3e f4 56 db 3e b1 51 67 3f
       0.98544973 0.16996728 0.42839777 0.90359026
0003a0 64 e4 0e 3e cc 7e 7d 3f 43 47 35 3d c9 bf 7f 3f
       0.13954312 0.990216 0.044257414 0.99902016
0003b0 55 5e 65 3c 94 f9 7f 3f d6 11 91 3b 5c ff 7f 3f
       0.013999541 0.999902 0.004427175 0.9999902
0003c0 44 79 26 3f e8 7a 42 bf 75 e0 7f bf 96 22 fe 3c
       0.65028787 -0.7596879 -0.9995187 0.031022351
0003d0 d5 5b 7f 3f ba de 90 3d 83 db e9 3e 68 bc 63 3f
       0.997495 0.07073732 0.45675287 0.8895936
0003e0 4f 06 19 3e 1a 20 7d 3f aa 37 42 3d 49 b6 7f 3f
       0.14943813 0.9887711 0.047416367 0.9988752
0003f0 32 c0 75 3c a1 f8 7f 3f 85 6e 9b 3b 43 ff 7f 3f
       0.014999436 0.9998875 0.0047433996 0.99998873

net.month_embedder.pe f4 [15, 16]
000000 00 00 00 00 00 00 00 40 00 00 00 00 00 00 00 40
       0.0 2.0 0.0 2.0
000010 00 00 00 00 00 00 00 40 00 00 00 00 00 00 00 40
       0.0 2.0 0.0 2.0
000020 00 00 00 00 00 00 00 40 00 00 00 00 00 00 00 40
       0.0 2.0 0.0 2.0
000030 00 00 00 00 00 00 00 40 00 00 00 00 00 00 00 40
       0.0 2.0 0.0 2.0
000040 a4 6a d7 3f 41 51 8a 3f 78 15 2d 3f ac ed f0 3f
       1.6829419 1.0806047 0.67610884 1.8822532
000050 db f9 72 3e 23 31 fe 3f b5 ed a7 3d e6 c8 ff 3f
       0.23728125 1.9858745 0.08199636 1.9983184
000060 73 b2 e7 3c 72 f9 ff 3f 3d ce 1f 3c 39 ff ff 3f
       0.028283333 1.9998 0.009753761 1.9999763
000070 97 6f 5c 3b e8 ff ff 3f c1 08 98 3a fd ff ff 3f
       0.0033635849 1.9999971 0.0011599289 1.9999996
000080 b7 c7 e8 3f 33 11 55 bf d2 e4 a2 3f fd 7c c5 3f
       1.8185948 -0.8322937 1.272608 1.5428768
000090 8a 42 f1 3e 15 cb f8 3f 90 c9 27 3e b0 23 ff 3f
       0.47121078 1.9436976 0.16385484 1.9932766
0000a0 84 ac 67 3d ca e5 ff 3f c1 cd 9f 3c e2 fc ff 3f
       0.056561008 1.9992001 0.01950729 1.9999049
0000b0 83 6f dc 3b a1 ff ff 3f c0 08 18 3b f5 ff ff 3f
       0.0067271604 1.9999887 0.0023198575 1.9999987
0000c0 c3 81 90 3e 26 70 fd bf c3 10 dc 3f 61 cb 82 3f
       0.28224 -1.979985 1.7192615 1.0218316
0000d0 dd cf 32 3f 5d e1 ef 3f 0a 54 7b 3e a5 10 fe 3f
       0.69848424 1.874065 0.24543777 1.984883
0000e0 fa b9 ad 3d 07 c5 ff 3f 6a b3 ef 3c fc f8 ff 3f
       0.08482738 1.9982003 0.029260356 1.9997859
0000f0 88 53 25 3c 2b ff ff 3f 1b 0d 64 3b e7 ff ff 3f
       0.010090716 1.9999746 0.003479785 1.999997
000100 cf bd c1 bf 30 55 a7 bf 3a 53 fb 3f d2 cc c2 3e
       -1.513605 -1.3072872 1.9634774 0.3804689
000110 d9 77 6a 3f 35 94 e3 3f 2a 39 a7 3e 3b 90 fc 3f
       0.91589123 1.7779604 0.326608 1.9731516
000120 cc 94 e7 3d 2c 97 ff 3f cf cb 1f 3d 88 f3 ff 3f
       0.113076776 1.9968009 0.039012726 1.9996195
000130 31 6f 5c 3c 84 fe ff 3f b9 08 98 3b d3 ff ff 3f
       0.0134542445 1.9999547 0.0046397117 1.9999946
000140 10 7c f5 bf 2c 3c 11 3f f3 fd fc 3f c6 83 9c be
       -1.9178486 0.5673244 1.9764999 -0.30569285
000150 fc 67 8f 3f 19 10 d4 3f 52 80 d0 3e 19 a3 fa 3f
       1.1203609 1.6567413 0.407229 1.9581023
000160 e1 b1 10 3e 3a 5c ff 3f f0 bc 47 3d 84 ec ff 3f
       0.14130355 1.995002 0.04876417 1.9994054
000170 59 c5 89 3c af fd ff 3f e1 0a be 3b ba ff ff 3f
       0.016817736 1.9999293 0.0057996367 1.9999917
000180 8c 0f 0f bf b8 cd f5 3f af de e0 3f 3f b3 74 bf
       -0.558831 1.9203405 1.7567958 -0.9558601
000190 79 8d a7 3f 24 8d c1 3f b9 6d f9 3e 11 4a f8 3f
       1.3090049 1.5121198 0.48716524 1.9397603
0001a0 f4 91 2d 3e 36 14 ff 3f d8 ac 6f 3d f2 e3 ff 3f
       0.16950208 1.9928043 0.058514446 1.9991438
0001b0 fe 52 a5 3c aa fc ff 3f 05 0d e4 3b 9b ff ff 3f
       0.020181175 1.9998982 0.00695956 1.999988
0001c0 46 30 a8 3f bd ff c0 3f 1f 45 aa 3f 49 2a bf bf
       1.3139732 1.5078045 1.3302344 -1.493478
0001d0 11 55 bd 3f 48 4e ac 3f e1 f7 10 3f 27 86 f5 3f
       1.4791585 1.346139 0.56628233 1.9181565
0001e0 24 69 4a 3e 23 bf fe 3f a6 cd 8b 3d d1 d9 ff 3f
       0.1976667 1.990208 0.06826334 1.9988347
0001f0 86 e0 c0 3c 75 fb ff 3f 92 07 05 3c 76 ff ff 3f
       0.023544561 1.9998614 0.008119481 1.9999835
000200 95 46 fd 3f f6 fd 94 be 27 3e 3f 3f 9e 78 ed bf
       1.9787165 -0.29100007 0.7470421 -1.8552434
000210 03 70 d0 3f 57 a0 94 3f 7c fa 24 3f 8c 58 f2 3f
       1.6284183 1.1611432 0.6444471 1.8933272
000220 f7 35 67 3e 04 5d fe 3f 06 c4 9f 3d 21 ce ff 3f
       0.2257918 1.9872136 0.078010604 1.998478
000230 ea 6d dc 3c 12 fa ff 3f 9e 08 18 3c 4b ff ff 3f
       0.02690788 1.999819 0.009279398 1.9999784
000240 32 01 53 3f d5 3f e9 bf 1b 6b 9b 3d ce d0 ff bf
       0.824237 -1.8222605 0.07588788 -1.9985597
000250 3a 99 e0 3f e6 b1 75 3f 13 b6 38 3f 9e c2 ee 3f
       1.7546761 0.95974576 0.72152823 1.8653142
000260 79 fb 81 3e e0 ed fd 3f 6d b9 b3 3d e2 c0 ff 3f
       0.2538717 1.9838219 0.087756015 1.9980738
000270 25 fb f7 3c 7e f8 ff 3f a7 09 2b 3c 1c ff ff 3f
       0.030271122 1.9997709 0.010439313 1.9999728
000280 f8 44 8b bf 64 cd d6 bf fa ac 1a bf e4 09 f4 bf
       -1.0880423 -1.678143 -0.6042019 -1.9065518
000290 42 96 ed 3f a9 aa 3e 3f 26 22 4c 3f e7 c5 ea 3f
       1.856148 0.74479157 0.79739606 1.8341645
0002a0 50 55 90 3e bb 71 fd 3f bc ad c7 3d 14 b2 ff 3f
       0.28190088 1.9800333 0.09749934 1.997622
0002b0 19 c4 09 3d bb f6 ff 3f ac 0a 3e 3c e6 fe ff 3f
       0.03363428 1.9997171 0.011599224 1.9999664
0002c0 5c ff ff bf 72 05 11 3c 76 48 9b bf df 86 cb bf
       -1.9999804 0.008851396 -1.2131488 -1.5900534
0002d0 27 38 f7 3f f2 f1 04 3f 59 36 5f 3f 20 64 e6 3f
       1.9314011 0.5193168 0.871923 1.7999306
0002e0 c3 a7 9e 3e 9d e8 fc 3f d4 a0 db 3d b8 a1 ff 3f
       0.30987367 1.9758488 0.10724035 1.9971228
0002f0 86 8a 17 3d c9 f4 ff 3f ae 0b 51 3c ab fe ff 3f
       0.03699734 1.9996578 0.012759132 1.9999593
000300 d8 5c 89 bf d0 06 d8 3f b2 f1 d6 bf ea 0c 8b bf
       -1.0731459 1.6877079 -1.679251 -1.0863316
000310 11 5c fd 3f f1 b0 92 3e 76 ea 71 3f 2c 9f e1 3f
       1.9793721 0.2865062 0.94498384 1.76267
000320 17 f2 ac 3e 8b 52 fc 3f 94 92 ef 3d ce 8f ff 3f
       0.3377845 1.971269 0.116978794 1.9965761
000330 d7 50 25 3d a7 f2 ff 3f aa 0c 64 3c 6a fe ff 3f
       0.040360298 1.9995927 0.013919035 1.9999516
000340 22 20 57 3f 6f 4e e8 3f d7 4b f9 bf 04 ce e8 be
       0.84033406 1.8148936 -1.947627 -0.45469677
000350 ce eb ff 3f 8f 5c 4b 3d 38 1b 82 3f 17 79 dc 3f
       1.9993837 0.049648818 1.0164557 1.7224454
000360 8f 33 bb 3e 8f af fb 3f 71 c1 01 3e 55 7c ff 3f
       0.36562774 1.9662951 0.12671448 1.9959818
000370 09 17 33 3d 56 f0 ff 3f a2 0d 77 3c 23 fe ff 3f
       0.04372314 1.999522 0.015078934 1.9999431
000380 72 98 fd 3f d7 04 8c 3e 64 4b fe bf fa 01 6c 3e
       1.9812148 0.27347443 -1.9866757 0.23047629
000390 19 de fe 3f 73 6b 40 be 32 09 8b 3f 1a f4 d6 3f
       1.9911529 -0.18790989 1.0862181 1.6793244
0003a0 71 6b c9 3e af ff fa 3f cc b8 0b 3e 4e 67 ff 3f
       0.39339784 1.9609278 0.13644713 1.9953401
0003b0 1a dd 40 3d d6 ed ff 3f 4a 07 85 3c d7 fd ff 3f
       0.04708586 1.9994457 0.016238827 1.9999341

net.pos_encoder.pe f4 [1, 40, 16]
000000 00 00 00 00 00 00 80 3f 00 00 00 00 00 00 80 3f
       0.0 1.0 0.0 1.0
000010 00 00 00 00 00 00 80 3f 00 00 00 00 00 00 80 3f
       0.0 1.0 0.0 1.0
000020 00 00 00 00 00 00 80 3f 00 00 00 00 00 00 80 3f
       0.0 1.0 0.0 1.0
000030 00 00 00 00 00 00 80 3f 00 00 00 00 00 00 80 3f
       0.0 1.0 0.0 1.0
000040 a4 6a 57 3f 41 51 0a 3f f0 90 d1 3e c7 92 69 3f
       0.84147096 0.54030234 0.4093089 0.9123959
000050 3a 23 35 3e 83 f6 7b 3f 36 6f 99 3d d1 47 7f 3f
       0.17689219 0.9842302 0.07491915 0.9971896
000060 5b 81 01 3d 3c df 7f 3f 49 7a 5a 3c 2c fa 7f 3f
       0.031617504 0.99950004 0.013334819 0.99991107
000070 5a 44 b8 3b f7 fe 7f 3f 03 69 1b 3b d1 ff 7f 3f
       0.0056233825 0.9999842 0.0023713715 0.9999972
000080 b7 c7 68 3f 33 11 d5 be 11 35 3f 3f 03 39 2a 3f
       0.9092974 -0.41614684 0.7469035 0.6649324
000090 f6 47 b2 3e a6 fa 6f 3f d3 00 19 3e 4f 20 7d 3f
       0.34820527 0.93741834 0.1494172 0.98877424
0000a0 c8 70 81 3d f9 7c 7f 3f 50 75 da 3c b1 e8 7f 3f
       0.063203394 0.9980007 0.026667267 0.99964434
0000b0 9b 43 38 3c db fb 7f 3f e7 68 9b 3b 43 ff 7f 3f
       0.011246587 0.99993676 0.00474273 0.99998873
0000c0 c3 81 10 3e 26 70 7d bf 63 21 74 3f 63 18 9a 3e
       0.14112 -0.9899925 0.95363444 0.3009673
0000d0 6c 2f 02 3f 29 6d 5c 3f e2 6d 64 3e 92 8c 79 3f
       0.5085361 0.86104065 0.22307542 0.9748012
0000e0 c0 ff c1 3d 4f d9 7e 3f c5 d1 23 3d 90 cb 7f 3f
       0.094726086 0.99550337 0.039994974 0.99919987
0000f0 c6 31 8a 3c ad f6 7f 3f 13 1d e9 3b 58 fe 7f 3f
       0.016869437 0.9998577 0.0071140616 0.9999747
000100 cf bd 41 bf 30 55 27 bf a6 47 7e 3f b2 03 ed bd
       -0.7568025 -0.6536436 0.99328077 -0.115729704
000110 bc 1f 27 3f ed eb 41 3f 20 49 97 3e c1 91 74 3f
       0.652828 0.7575062 0.29547977 0.955349
000120 88 2e 01 3e 69 f4 7d 3f 6c 61 5a 3d ca a2 7f 3f
       0.12615407 0.99201065 0.053315565 0.9985777
000130 a0 40 b8 3c 6c ef 7f 3f 74 68 1b 3c 0d fd 7f 3f
       0.022491753 0.99974704 0.009485353 0.999955
000140 10 7c 75 bf 2c 3c 91 3e 9d e0 5b 3f 42 1c 03 bf
       -0.9589243 0.2836622 0.8588961 -0.51214993
000150 ab ca 46 3f f1 4c 21 3f 9e 81 bb 3e 05 37 6e 3f
       0.77652997 0.6300803 0.36622328 0.93052703
000160 1d 3c 21 3e 81 ce 7c 3f 92 73 88 3d 60 6e 7f 3f
       0.15745588 0.987526 0.06662668 0.99777794
000170 fb 4d e6 3c 19 e6 7f 3f 26 42 42 3c 65 fb 7f 3f
       0.028113356 0.99960476 0.011856591 0.9999297
000180 8c 0f 8f be b8 cd 75 3f 57 f3 12 3f 53 9f 51 bf
       -0.2794155 0.96017027 0.5740256 -0.81883734
000190 88 30 60 3f 35 2f f7 3e 4f ac de 3e 83 85 66 3f
       0.8757405 0.48278204 0.43490836 0.9004747
0001a0 6e 20 41 3e e3 67 7b 3f 37 b0 a3 3d 56 2e 7f 3f
       0.18860027 0.98205394 0.07992595 0.9968008
0001b0 be 2c 0a 3d b3 da 7f 3f 91 1b 69 3c 5e f9 7f 3f
       0.033734076 0.99943084 0.014227764 0.9998988
0001c0 46 30 28 3f bd ff 40 3f 6d 1b 41 3e 21 68 7b bf
       0.6569866 0.75390226 0.18858118 -0.98205763
0001d0 44 84 72 3f ba f8 a3 3e 4b 4b 00 3f 4e 88 5d 3f
       0.9473307 0.320257 0.5011489 0.8653611
0001e0 50 d3 60 3e ea c0 79 3f 68 e5 be 3d ae e2 7e 3f
       0.2195561 0.9755999 0.093210995 0.99564636
0001f0 5e 31 21 3d 3b cd 7f 3f 52 fa 87 3c f9 f6 7f 3f
       0.03935372 0.9992253 0.016598854 0.99986225
000200 95 46 7d 3f f6 fd 14 be 00 6c 6b be 81 24 79 bf
       0.98935825 -0.14550003 -0.22990417 -0.97321326
000210 e3 31 7d 3f a3 2c 17 3e d4 87 10 3f 54 4c 53 3f
       0.98904246 0.14763121 0.5645726 0.8253834
000220 51 26 80 3e 02 da 77 3f e9 11 da 3d 6c 8b 7e 3f
       0.25029233 0.9681703 0.10647947 0.9943149
000230 b1 34 38 3d b1 bd 7f 3f aa 66 9b 3c 35 f4 7f 3f
       0.044972125 0.9989882 0.018969852 0.99982005
000240 32 01 d3 3e d5 3f 69 bf ff ac 1b bf 04 3a 4b bf
       0.4121185 -0.91113025 -0.60810846 -0.793854
000250 2f e3 7f 3f 3a e6 f2 bc 66 f4 1f 3f 4f e0 47 3f
       0.9995603 -0.029650796 0.624823 0.7807664
000260 2d c2 8f 3e a9 b3 75 3f 7c 34 f5 3d 93 28 7e 3f
       0.28077832 0.95977265 0.11972901 0.9928066
000270 86 36 4f 3d 16 ac 7f 3f c9 d2 ae 3c 13 f1 7f 3f
       0.050589107 0.9987196 0.021340745 0.99977225
000280 f8 44 0b bf 64 cd 56 bf 6b 38 61 bf 47 68 f3 be
       -0.5440211 -0.8390715 -0.8797671 -0.47540495
000290 6b 82 7a 3f 0b f1 52 be cd 7a 2e 3f b1 54 3b 3f
       0.9785525 -0.20599763 0.6815613 0.73176104
0002a0 3d 39 9f 3e 6b 4e 73 3f f3 25 08 3e 28 ba 7d 3f
       0.31098357 0.9504153 0.13295726 0.99112177
0002b0 ad 36 66 3d 68 98 7f 3f a7 3e c2 3c 93 ed 7f 3f
       0.056204487 0.9984193 0.023711516 0.99971884
0002c0 5c ff 7f bf 72 05 91 3b f6 4d 7f bf 7c db 96 bd
       -0.9999902 0.004425698 -0.99728334 -0.07366082
0002d0 01 3b 6d 3f 12 6f c0 be 25 06 3c 3f 83 bb 2d 3f
       0.9266816 -0.3758474 0.73446876 0.67864245
0002e0 8b 87 ae 3e e4 aa 70 3f 75 ab 15 3e 30 40 7d 3f
       0.34087786 0.9401076 0.14616187 0.9892607
0002f0 f9 34 7d 3d a8 82 7f 3f 3e aa d5 3c b4 e9 7f 3f
       0.061818097 0.9980874 0.026082154 0.9996598
000300 d8 5c 09 bf d0 06 58 3f 3e a8 70 bf 26 96 ae 3e
       -0.53657293 0.84385395 -0.9400672 0.3409893
000310 2b 78 58 3f f0 a9 08 bf f0 82 48 3f 59 28 1f 3f
       0.8455836 -0.53384304 0.78324795 0.6217094
000320 2c a9 bd 3e c3 c9 6d 3f 27 2a 23 3e b1 ba 7c 3f
       0.3704313 0.9288599 0.15934049 0.9872237
000330 9c 18 8a 3d d7 6a 7f 3f 86 15 e9 3c 78 e5 7f 3f
       0.06742975 0.997724 0.028452646 0.99959517
000340 22 20 d7 3e 6f 4e 68 3f 43 d8 37 bf 2b 26 32 3f
       0.42016703 0.9074468 -0.71814364 0.6958949
000350 86 e1 3c 3f e9 cc 2c bf 36 df 53 3f 2c b0 0f 3f
       0.7378162 -0.6750017 0.8276247 0.5612819
000360 3f 9a cc 3e c3 ab 6a 3f 6c a1 30 3e b1 29 7c 3f
       0.3996143 0.9166834 0.17249078 0.98501116
000370 9c 95 95 3d f5 50 7f 3f 78 80 fc 3c dc e0 7f 3f
       0.07303926 0.99732906 0.030822977 0.99952483
000380 72 98 7d 3f d7 04 0c 3e 70 a4 bd be b4 ca 6d 3f
       0.9906074 0.13673721 -0.37039518 0.92887425
000390 d7 55 1b 3f a9 7c 4b bf 9d 0a 5e 3f 7c d2 fe 3e
       0.60677856 -0.7948709 0.86734945 0.49769962
0003a0 f4 56 db 3e b1 51 67 3f a6 10 3e 3e 35 8d 7b 3f
       0.42839777 0.90359026 0.18561038 0.9826234
0003b0 67 11 a1 3d 02 35 7f 3f 86 f5 07 3d e3 db 7f 3f
       0.07864647 0.9969026 0.033193134 0.99944896
0003c0 44 79 26 3f e8 7a 42 bf 7e 0d 2d 3d 7c c5 7f 3f
       0.65028787 -0.7596879 0.042249195 0.9991071
0003d0 e7 c7 e9 3e 71 c1 63 bf 85 f6 66 3f f2 d5 dc 3e
       0.45660326 -0.88967043 0.9021991 0.43131977
0003e0 83 db e9 3e 68 bc 63 3f 39 77 4b 3e 47 e5 7a 3f
       0.45675287 0.8895936 0.19869699 0.980061
0003f0 e3 8b ac 3d fd 16 7f 3f 9f aa 11 3d 8b d6 7f 3f
       0.08425119 0.9964445 0.035563108 0.9993674

net.input_encoder.layers.0.self_attn.in_proj_weight f4 [48, 16]
000000 4d ef 67 3d b2 b9 bb bc 2d c0 64 3d 59 c6 8a be
       0.0566247 -0.022915695 0.055847336 -0.27104452
000010 2e 85 36 be 8a 89 a0 bb 9c 81 2d be 26 79 8b be
       -0.17824242 -0.0048992084 -0.16943973 -0.27240866
000020 f1 e1 4a be 05 f9 c6 3a 44 5c a2 bd 87 34 86 bd
       -0.19812752 0.0015180415 -0.079277545 -0.065529875
000030 6b 75 8a be 72 c2 9e bd f4 ca cc bd bc 44 2a be
       -0.27042708 -0.07751931 -0.09999648 -0.16627783
000040 46 42 c1 bd 40 48 22 3e 58 84 58 be 67 13 c1 3c
       -0.09436469 0.15847874 -0.21144235 0.023568822
000050 17 2b 40 be 51 f6 9e 3d a0 36 53 3b 2f 8d 56 bd
       -0.18766437 0.07761825 0.0032228604 -0.052380737
000060 50 49 18 be d5 dc 5a 3d 0c 4b fe bd d6 84 ef bd
       -0.14871716 0.053433258 -0.12416658 -0.11695258
000070 0b 92 58 3d 7e dc f4 3c 0f 73 86 be 56 77 bf bc
       0.052873652 0.029890295 -0.26259658 -0.023372333
000080 a8 1c 15 be 6b 7b 17 bc f1 66 e4 bc 56 ae 2e 3e
       -0.14561713 -0.009245734 -0.027881118 0.17058691
000090 f8 a8 d7 3d 1a 0a 91 3d 2a 47 1f be 6d 47 2d 3e
       0.10530275 0.07082005 -0.1555449 0.16921778
0000a0 ba 1d be 3d 43 0f 54 be 0c 56 8f bd 1f 28 bc 3d
       0.09283014 -0.20708947 -0.06998834 0.0918734
0000b0 83 96 39 be 9f e2 fc 3c 34 57 be be 08 08 84 3d
       -0.18123822 0.03086978 -0.37175906 0.06446844
0000c0 04 9d f2 bc f6 81 18 3e 1b 3a a2 bd 2e ec 04 3e
       -0.029615887 0.14893326 -0.07921239 0.1298072
0000d0 5c 2f ba 3d 02 b1 e5 bc 92 24 a0 bd 6a 30 55 3e
       0.09091064 -0.028038505 -0.07819475 0.2081925
0000e0 c8 c2 51 bd a2 a5 bc 3d c3 a5 e4 3d 2a 56 9d 3d
       -0.05121115 0.092112795 0.11164429 0.0768245
0000f0 78 7d e3 3d 91 f2 03 3e 48 44 22 3e 3f 15 48 3e
       0.11107916 0.128855 0.1584636 0.19539355
000100 3a 04 28 3d c5 0e 69 be 06 e1 46 3d 96 c4 a9 bd
       0.041019656 -0.2275954 0.048554443 -0.08289449
000110 6d 32 a9 3d 6c c3 ba 3b 56 67 b2 bd 7a d0 4e be
       0.08261571 0.0056995656 -0.08711116 -0.20196715
000120 c6 b2 db bd 91 0c 26 bc e2 3b 0e bd c7 85 1b 3d
       -0.10727458 -0.010134832 -0.034725077 0.037969377
000130 10 55 35 be 53 29 ac 3c 56 b0 51 be 88 8d a7 3d
       -0.1770823 0.021015799 -0.20477423 0.08181292
000140 2e 10 01 3e d4 dd 14 3e 2a cb 13 be 2c e2 6b 3e
       0.12603828 0.14537746 -0.1443297 0.23035496
000150 d7 bd e2 3c 97 fc c8 3d 64 b6 81 bd 79 17 39 3e
       0.027678413 0.09813803 -0.063336164 0.1807536
000160 b6 a2 3f bd f4 93 d0 bd f3 11 65 bd e8 f9 85 bc
       -0.046786033 -0.1018447 -0.05592532 -0.016354516
000170 5a b3 e5 3d 7c 39 a6 bd 83 f3 e3 3c 7b a7 81 bd
       0.11215849 -0.08116433 0.027826076 -0.063307725
000180 29 70 ad 3d fd b2 11 bd 4a 58 a0 bd b3 9b 35 3d
       0.084686585 -0.035571087 -0.0782934 0.04433794
000190 13 96 df 3d b1 05 05 3e 0f 6e 12 3a 19 23 60 3e
       0.10917296 0.12990452 0.0005585858 0.21888389
0001a0 be a0 38 be 6f c5 d8 3d 85 f9 2e 3e bd 57 c2 3d
       -0.18030068 0.105845325 0.17087372 0.09489391
0001b0 c3 2f be bc 19 46 1f 3d cb e3 8c bd d5 53 f0 3d
       -0.023216134 0.03888521 -0.068793856 0.1173474
0001c0 62 f8 33 be 00 9c ba 3d f7 6e 6a 3d 78 1e ac 3d
       -0.1757522 0.09111786 0.05723473 0.08404249
0001d0 0e 18 5d be 8e 06 27 3e 7d f0 4a bd 96 7e d2 3d
       -0.21591207 0.16311094 -0.049545754 0.102780506
0001e0 32 4a 95 bd 33 5a 85 3e 4f 11 1d 3e 16 2b 26 3e
       -0.07289542 0.2604538 0.15338634 0.16227373
0001f0 84 12 f6 3d 0e 07 a6 bd 74 74 a6 bd 32 d8 73 bd
       0.1201525 -0.08106814 -0.081276804 -0.05953235
000200 08 97 9b 3d 79 43 aa 3d 44 22 91 3b 20 d8 86 3d
       0.07597166 0.08313651 0.0044291336 0.06584191
000210 a4 08 66 3d ee b4 0a 3e cb b2 f5 bd e9 20 85 3e
       0.056160584 0.13545582 -0.11996993 0.2600167
000220 61 6c 31 bd 13 86 c9 3d 7f a3 86 bc 2b bf 7c bd
       -0.04331625 0.09840026 -0.016435383 -0.06170575
000230 44 8d 90 3e 7c 5d 27 be 75 b1 55 3e 81 c0 89 3c
       0.28232777 -0.16344255 0.20868476 0.016815426
000240 ec 2f f1 3d 40 72 15 be 95 8f 7f 3d a5 68 88 bd
       0.117767185 -0.14594364 0.06239279 -0.06660584
000250 f1 70 84 3d ce 74 24 be af 96 3f be 39 1a 3b bc
       0.06466854 -0.16060182 -0.18709825 -0.011419826
000260 bf fd 50 be 1f cf 90 be a1 a0 03 be 6d 48 e1 bd
       -0.20409296 -0.2828302 -0.12854244 -0.11000142
000270 14 55 9f bb 6b 3b e3 3d 89 ab 44 be 24 0b a2 bc
       -0.004862437 0.110953175 -0.1920606 -0.019780703
000280 4f 49 0b 3e 87 f0 fa bd a5 d5 e8 3d bd 3c 3c bd
       0.13602184 -0.12252908 0.113688745 -0.045956362
000290 c1 5c f2 3d 96 19 f1 bd d7 20 73 3e c7 8a 52 bd
       0.11834098 -0.11772458 0.23742996 -0.05140188
0002a0 be 1c 40 3d 61 98 25 be de 87 85 3e fe 52 ff bd
       0.04690241 -0.16171409 0.2608022 -0.124670014
0002b0 e2 cd 77 3e 54 a7 82 3d 66 b1 40 3e e5 61 9d bd
       0.24199632 0.063795716 0.18817672 -0.076846875
0002c0 18 36 c3 bd 34 8a f3 bd e8 35 c5 3d 18 7d 9b be
       -0.09531802 -0.118915945 0.096294224 -0.30368876
0002d0 68 2e 2d 3d 68 ea 1e bd 72 65 9c 3d f1 f1 a5 3d
       0.042280585 -0.038797766 0.07636537 0.08102787
0002e0 29 ed 00 3e e0 8c ee bd eb 0e dc 3d e9 02 da bd
       0.1259047 -0.116479635 0.10745033 -0.10645086
0002f0 bf cb ff ba 19 48 4f bd 38 fa ca bd 2e c4 f8 bd
       -0.0019515677 -0.050605867 -0.09911007 -0.12146793
000300 39 ce d0 3d 63 62 02 bd c3 d5 7f 3c ee 6d c8 bc
       0.10195584 -0.03183211 0.01561493 -0.024466481
000310 99 cd cc 3d 87 72 af bc a0 fc ef bc 2f 8e 2e 3d
       0.10000152 -0.021416916 -0.029295266 0.042616066
000320 43 57 27 3c 15 0b 57 be 05 e3 1c bd c6 02 20 bd
       0.010213676 -0.21000321 -0.03830244 -0.039065145
000330 87 aa 9d 3d 7e 09 08 bd 2b fe 38 bd 5c 1d 23 be
       0.07698541 -0.033212177 -0.04516427 -0.15929168
000340 56 23 04 bd b9 d4 94 be 9e 47 ef 3d 57 3f 44 be
       -0.03226026 -0.29068545 0.11683582 -0.19164787
000350 dc 4e 6e bd 92 c6 71 3d 20 9a ab 3d 68 64 16 be
       -0.058180675 0.059027262 0.083790064 -0.1468674
000360 53 f3 2e be fd 49 be 3c 22 ca ff bd 2f 98 12 3e
       -0.17085008 0.02322864 -0.12489726 0.14315866
000370 9b ee 17 3d 70 ce 81 3d 0e 53 7d be 59 c0 42 3e
       0.037092786 0.06338203 -0.24738714 0.19018687
000380 97 4d 82 3d d5 5d 8b 3c 48 10 0b 3e ba c2 92 3e
       0.06362455 0.017012516 0.1358043 0.2866419
000390 da cd e4 3d 32 ec bf 3c af 94 31 3e 88 6c 3a bd
       0.111720756 0.023428056 0.17341875 -0.04551366
0003a0 20 fc d9 3d 3e f1 02 3e 49 95 ce 3e 4a e3 b2 3b
       0.10643792 0.12787339 0.4034827 0.005459224
0003b0 88 51 ff 3d 98 21 3e bc 7d 22 23 3e 1d c7 5e bd
       0.12466723 -0.011604689 0.15931125 -0.054389108
0003c0 8d 69 a5 bd ba 18 56 bd b9 5c c9 3d c9 75 4d 3e
       -0.08076773 -0.052269675 0.098321386 0.20064463
0003d0 6a 75 a4 bd 89 97 c7 bd c1 c5 96 be 17 1e bf 3a
       -0.080302075 -0.097457 -0.2944775 0.0014581111
0003e0 ba ca 37 be 0b 2d 09 be 9b fe 2e bc 9f dd be bc
       -0.17948428 -0.13396089 -0.01068082 -0.023299037
0003f0 71 55 17 be 1e 27 18 3d bd 28 91 bd de c3 90 bd
       -0.14778687 0.03714668 -0.07087848 -0.07068609

net.input_encoder.layers.0.self_attn.in_proj_bias f4 [48]
000000 c3 83 60 be 5d aa 9d be 6c 65 4f be ec cc 06 3e
       -0.21925263 -0.3079404 -0.20253533 0.13164109
000010 79 61 15 3f fd ae 26 3f 53 ca 42 bf 7f e5 4d bd
       0.58351856 0.6511076 -0.7608997 -0.050267693
000020 0b 6e e1 3c a5 8f cc bd 54 07 ca 3d 6f 89 d4 3c
       0.027518293 -0.099883355 0.09864679 0.02594444
000030 62 e2 11 3e 21 7f 3e 3d c8 2d 91 bd e5 f1 7a 3e
       0.14246514 0.04650796 -0.0708881 0.24506338
000040 98 c4 e3 b5 e0 17 35 b5 6c b6 bb b5 8a a1 74 33
       -1.6970034e-06 -6.7462497e-07 -1.3985677e-06 5.6957596e-08
000050 47 ba 55 33 51 14 4b 36 46 51 a0 36 32 d7 20 37
       4.9762345e-08 3.0261183e-06 4.777833e-06 9.586847e-06
000060 8f dd be b5 ca 87 0a 36 76 02 82 35 38 6b 11 36
       -1.4220585e-06 2.0642642e-06 9.686471e-07 2.1669093e-06
000070 76 e1 8b b6 dc b8 43 36 74 a2 92 34 8b 39 11 b5
       -4.16877e-06 2.9164867e-06 2.731282e-07 -5.4100445e-07
000080 20 99 77 3b 8e 08 35 bd c9 49 99 3d 5e d2 32 3e
       0.0037780479 -0.04419761 0.074847765 0.17463061
000090 0f c9 a7 bd 13 10 02 3b d8 db cf 3d ba 68 3d bc
       -0.08192646 0.0019846007 0.10149354 -0.011560613
0000a0 fe 80 85 3d 80 17 54 3e 6a 5a 96 3d 69 0f db bc
       0.06518744 0.2071209 0.07341464 -0.026740747
0000b0 5d ae 09 be 07 b5 c2 3d 99 42 a2 3d 20 36 a4 bb
       -0.1344542 0.095071845 0.07922859 -0.005011335

net.input_encoder.layers.0.self_attn.out_proj.weight f4 [16, 16]
000000 cc 93 a0 3d d1 60 98 3d 75 d8 1c 3e 98 f7 db 3d
       0.0784069 0.07440341 0.15316947 0.10740584
000010 b2 32 fd bd e3 67 80 bd 6f 98 84 3d 20 83 5e 3e
       -0.12363185 -0.06269815 0.06474387 0.21729708
000020 06 a6 85 3c 07 7b 83 bc b3 c9 9f 3d 02 bf bc 3d
       0.016314518 -0.016049875 0.07802143 0.09216119
000030 18 e1 ab 3d 66 dc 08 3e de de ba 3d 94 f0 80 be
       0.083925426 0.13365325 0.0912454 -0.25183547
000040 98 2f 94 3d 07 30 1c 3d 31 d8 c8 bd c1 e5 27 3e
       0.0723564 0.03813174 -0.0980686 0.16396238
000050 a0 12 b9 bc 02 63 2e bd 99 93 95 3c b8 24 56 3e
       -0.022591889 -0.04257489 0.018258857 0.20912445
000060 86 1a ff bd 86 94 24 3b 53 8e eb 3d bd 7e 6a be
       -0.12456231 0.002511294 0.115017556 -0.2289991
000070 96 13 dd 3e a1 2b 9a 3c 23 47 0e be 96 f6 30 bd
       0.43179005 0.018819632 -0.13894324 -0.043203913
000080 f3 57 de 3d ca e1 1e 3b ef 4c 4e 3d 94 36 6a 3d
       0.10856619 0.0024243467 0.05036634 0.057180956
000090 04 cc 59 3a d2 1a 87 be f9 cc 4c be 92 eb c4 3d
       0.0008308294 -0.2638765 -0.20000066 0.09615244
0000a0 2c 5d 68 3b 78 db 8f 3d a8 76 27 3e f7 92 d6 bd
       0.0035455925 0.07024282 0.16353858 -0.1047725
0000b0 51 23 ae 3d a9 1a f2 3d 6b bb c5 3c 15 88 e2 3b
       0.0850283 0.11821491 0.02413722 0.006913195
0000c0 e5 14 d5 bd 0b b8 66 be d8 9f 10 3e 2f 3e ef 3d
       -0.10404376 -0.22531144 0.14123476 0.116817825
0000d0 a7 b8 0a 3d 53 f9 e3 3d d3 f9 e5 bd c3 1c 08 3e
       0.033867504 0.11131539 -0.11229291 0.13292222
0000e0 36 96 ad 3c 69 a1 00 be cb e1 16 bb 64 d6 a1 be
       0.02118979 -0.12561573 -0.0023022767 -0.3160888
0000f0 e9 43 06 3f c2 ef 25 3e b3 67 48 3e 3d 88 df 3d
       0.5244737 0.16204742 0.19570808 0.10914657
000100 67 7a ae 3d f9 60 91 3d 93 9a bd 3c 5d 8d 33 bc
       0.0851944 0.07098574 0.023144996 -0.010958997
000110 ec e2 6a 3d 38 fc 26 3e cb dd c7 bd 46 db a8 bc
       0.057345316 0.16307151 -0.097591005 -0.02061237
000120 25 f0 18 3e db 9f d9 3d 6c 81 60 3e 1b 37 e2 3c
       0.14935358 0.10626193 0.2192437 0.027614167
000130 3c 6c 12 be 49 80 90 3e e3 5b a5 3d 67 e4 f9 bd
       -0.142991 0.28222874 0.080741666 -0.122017674
000140 9e fd 00 3e c5 2f cd 3d de 9b 82 be d6 3d 67 be
       0.12596747 0.10018877 -0.25509542 -0.22582182
000150 be 64 c0 bd a8 35 9c be 85 c9 28 bd 3b c0 96 be
       -0.09394215 -0.30509686 -0.04120781 -0.29443535
000160 55 c3 cc bd 1d 45 2a be 1a 54 81 3d fe 52 12 be
       -0.09998194 -0.16627927 0.06314869 -0.14289472
000170 9f ea 1d 3e d0 67 3b be 0a 0b 99 bd 1d 60 98 3e
       0.15421532 -0.1830132 -0.07472809 0.2976083
000180 33 78 2c 3e 70 48 98 bd e6 e2 3e bd 54 64 34 3e
       0.16842727 -0.07435691 -0.046603106 0.17616397
000190 06 b2 42 be 9d f3 e0 bb 3e 93 44 3e 95 b5 97 bd
       -0.19013223 -0.0068649785 0.19196793 -0.07407681
0001a0 0b 2a 01 3d f6 15 93 bc 02 43 4b bc 41 59 60 3c
       0.031534236 -0.017954808 -0.012406113 0.013693155
0001b0 b4 19 56 be 68 c4 82 3e 26 eb 36 3c 1d 56 1e be
       -0.20908242 0.2554047 0.011164462 -0.15462537
0001c0 b3 60 ae bd 7f 27 57 3d d8 01 17 3c 9d 9f fc 3d
       -0.08514538 0.0525279 0.009216748 0.12335131
0001d0 5a 6f b5 be f2 f1 49 be 07 6f 00 be c7 a8 bb 3d
       -0.35436517 -0.19721201 -0.12542354 0.09163051
0001e0 c5 6a 2a 3c 16 7f 13 3e 9a 11 e1 3d 7d e7 4c bb
       0.010401432 0.14403948 0.10989685 -0.0031265907
0001f0 37 33 ff 3d a9 b1 21 3e bf 65 da bd 29 74 8c bd
       0.1246094 0.15790428 -0.10663938 -0.06858093
000200 11 2d c3 bb b9 02 41 3e b8 71 2c be 63 e9 ce bd
       -0.0059563 0.18848695 -0.16840255 -0.10103109
000210 fa 76 76 3e 69 93 98 3e f1 a2 af 3d 99 c7 08 be
       0.24068823 0.29799965 0.085760005 -0.1335739
000220 8e fb 12 be 8b 07 51 bd 57 e1 8f bd 7e 26 3a 3c
       -0.14353773 -0.051032584 -0.07025402 0.011361716
000230 1c 96 87 bd 58 9b 30 3e 2b 4d 25 3e 79 07 d9 3d
       -0.06620428 0.17246759 0.16142718 0.105971284
000240 9f a2 42 be 57 0e 35 3d a9 c7 67 bc ba a7 bd 3d
       -0.19007348 0.04420313 -0.014146724 0.09260507
000250 83 af 59 be d4 4b 24 bc 28 2a 04 3e f9 78 6b bd
       -0.21258359 -0.010027844 0.12906706 -0.057488415
000260 3b 35 17 3e fc c8 a5 3d 29 11 c7 3d d4 fd 95 3d
       0.147664 0.08094975 0.0972007 0.073238045
000270 d8 df 98 3d 5e 34 89 3d b0 89 86 bd 65 d1 37 bd
       0.0746457 0.066994414 -0.065692306 -0.04487743
000280 8b 20 9d bd b5 22 97 bd 6d 78 6b 3d e3 bd 9c 3d
       -0.07672223 -0.07379667 0.057487894 0.076534055
000290 94 7a 33 3c fb 7c a6 3d a0 f7 7c bd 2e d6 28 bd
       0.010954518 0.08129307 -0.06175959 -0.041219883
0002a0 76 76 82 bd 5a ff b5 3d 1f 0b ba 3e 82 f0 59 be
       -0.06370251 0.08886595 0.3633661 -0.21283153
0002b0 52 19 77 3d 48 54 fe 3d e8 9d 8b bd 45 e8 90 bd
       0.06032688 0.12418419 -0.068172276 -0.07075552
0002c0 a7 c9 16 3e 0c 80 00 3e 98 32 6c be a1 6f 30 be
       0.14725362 0.12548846 -0.23066175 -0.17230083
0002d0 56 50 ed bd e1 ab ea 3b 05 ee b0 be 4c 01 52 be
       -0.115875885 0.007161603 -0.34556594 -0.20508307
0002e0 5b 40 b4 bd 97 12 8e bd 82 e1 bd 3a cf ba c4 3d
       -0.08801337 -0.069371395 0.0014486762 0.096059434
0002f0 00 47 10 be 41 69 9a bc 23 13 92 be 35 9c 62 3c
       -0.14089584 -0.018849017 -0.28530225 0.013831188
000300 32 ed c1 bd 6e 69 9b 3c 07 c8 11 3d b6 d2 1b bd
       -0.094690695 0.018971171 0.03559115 -0.038042746
000310 97 21 7f 3d a4 cf ea 3c f3 ae b0 3c 63 c0 9b 3c
       0.062287893 0.028663464 0.021567797 0.019012636
000320 7e 9a e5 bd 1f 30 b6 3a 69 92 1d bd 77 cf cf 3c
       -0.11211108 0.0013899839 -0.038469706 0.025367482
000330 4b c4 b4 bc ec 61 fe bc f9 b5 2c be b1 42 fc bd
       -0.022066256 -0.031052552 -0.16866292 -0.12317408
000340 d3 52 13 bd 90 52 2d 3e 8c 05 aa bd d4 6a 9e bc
       -0.03596766 0.16926026 -0.08301839 -0.019338049
000350 b9 6c 6e 3d c1 ce 8d bc 85 7d 1b 3c 60 e2 29 be
       0.058209155 -0.017310502 0.009490375 -0.16590261
000360 78 76 f5 3b 13 55 0a 3c d4 4b ca bc 69 90 5c bd
       0.007490929 0.008443135 -0.02469436 -0.053848658
000370 f1 bd 65 bc 14 74 e5 bc b8 33 7d 3d df b7 20 3c
       -0.014022336 -0.028009452 0.0618169 0.009809463
000380 8b 3c 12 be fb db 0c 3e 9e 21 8e bc 38 8f a8 3c
       -0.14280908 0.13755791 -0.017350014 0.020576105
000390 11 a8 bc 3d 2a 98 af bc 8a fe ed 3b 5f 54 14 bd
       0.092117436 -0.021434862 0.0072630094 -0.036213275
0003a0 63 72 52 3d c0 ff f2 bd 3e 6a 18 bd 91 f6 b4 3c
       0.05137862 -0.11865187 -0.037210695 0.022090228
0003b0 cb 7c 2a 3c a7 b5 e4 bd 6b 99 98 bd 05 53 35 bd
       0.0104057295 -0.1116746 -0.07451137 -0.044268627
0003c0 9b f5 ae 3d b5 a8 2c 3e bd 74 40 be a4 0a 7d bd
       0.08542939 0.16861232 -0.18794532 -0.061777726
0003d0 ce 8f 84 3c 68 6f ad bd cc 22 81 bd 6a 6f 17 bd
       0.016181853 -0.08468515 -0.06305465 -0.036971487
0003e0 9b 21 70 bc 84 13 c3 3d 10 5f 94 bc 83 b7 79 bc
       -0.01465645 0.09525207 -0.018111736 -0.0152415065
0003f0 9b 55 64 3c ff eb 97 3c 61 a2 ec bc c1 04 bf 3c
       0.013936426 0.018545149 -0.028886022 0.023317697

net.input_encoder.layers.0.self_attn.out_proj.bias f4 [16]
000000 21 e8 df 3b 25 b7 9e bc ea e3 49 3d 90 da 26 bc
       0.006833092 -0.01937444 0.04928962 -0.010183945
000010 6b 89 94 3c 8b 83 e2 3b 59 14 c9 3d 33 a8 62 3d
       0.018131932 0.006912654 0.09818334 0.05533619
000020 49 d2 d8 bc 56 57 27 3d 86 05 23 3d 9c 35 7b 3d
       -0.02646746 0.040854774 0.03980019 0.061330423
000030 0b 3f a1 bd 12 23 82 3d 67 59 96 bd 93 5a f8 3d
       -0.078733526 0.063543454 -0.07341271 0.12126651

net.input_encoder.layers.0.linear1.weight f4 [32, 16]
000000 80 2f 38 3d e5 2b 08 be 56 1f f5 3c c7 d0 86 bd
       0.044967175 -0.13297994 0.029922169 -0.0658279
000010 ec 72 13 3c 76 89 12 be 38 4e c4 bd db 19 2d 3e
       0.0089995675 -0.1431025 -0.095852315 0.16904394
000020 80 46 40 be 67 d7 c3 bd 7c df b6 bd a0 b1 df bd
       -0.18776894 -0.09562569 -0.08929345 -0.10922551
000030 c4 23 12 bd 7a 38 21 bd 41 f1 1f bd 52 75 46 bd
       -0.03567864 -0.0393605 -0.039048437 -0.04845173
000040 da 27 26 be de 86 dc 3d f3 e7 40 bd ce 04 58 be
       -0.1622614 0.107679114 -0.047096204 -0.21095583
000050 50 e7 51 bd 99 83 03 3d 4f 2d 2d 3d 01 51 2e be
       -0.051245987 0.032107923 0.042279538 -0.17023088
000060 dd b9 ef 3d 12 fd 0e 3e f1 11 5d bd fa 8d 0e be
       0.117053725 0.13963726 -0.05397219 -0.13921347
000070 5a c6 15 3e cd 82 f9 bc 68 4f 11 3e 23 2f c9 3d
       0.14626446 -0.030457878 0.14190447 0.09823444
000080 a9 c0 48 3d 56 06 fd bd 59 55 08 be 59 f8 9c bc
       0.04901186 -0.12354724 -0.13313808 -0.01916139
000090 d7 e5 41 bd f3 5e 1a be dc bf 07 bd b6 63 ec bd
       -0.047338333 -0.15075283 -0.033141956 -0.11542456
0000a0 b5 d9 3f bb a5 1f 69 3e 46 1c a3 bd 80 36 60 be
       -0.002927405 0.22765978 -0.07964377 -0.2189579
0000b0 07 ca 30 bd 35 4f 26 be 8a ed 10 3e 7f 8b ed be
       -0.04316142 -0.16241153 0.14153114 -0.4639549
0000c0 72 99 ce bd 60 a3 b2 3c ec e7 f8 bb 15 ec f7 bb
       -0.10087861 0.021806419 -0.0075960066 -0.007565985
0000d0 1e f1 97 3d 96 67 5f 3d d2 01 c5 3d 28 f7 b5 bd
       0.07419036 0.054542147 0.09619488 -0.08885032
0000e0 c0 48 b5 3d 11 8e 8f 3e be c0 ec 3d ee c5 9b 3c
       0.088517666 0.28038076 0.115602 0.019015279
0000f0 ba 6b 00 3e ec df e6 3c 5c 35 13 be bc 0b 9c bd
       0.12541094 0.028182946 -0.14375824 -0.07619426
000100 3c 13 93 bd 37 8b bf 3b 5c 34 fb bc d8 08 d3 bc
       -0.07181403 0.005845453 -0.030664615 -0.025761053
000110 e0 76 82 bd ce 84 9f 3d f8 11 ad be 1c a9 46 be
       -0.0637033 0.07789002 -0.33802772 -0.19400448
000120 f1 51 17 3e 79 16 4e be 42 e4 55 3e e2 8c 33 3e
       0.14777352 -0.2012576 0.20887855 0.17534211
000130 1e a3 ea 3d 62 5c 9d 3b ef 8c 22 3e 99 6a 3c bd
       0.114568934 0.0048022727 0.15874074 -0.046000097
000140 2c 64 51 bc 19 66 33 3e c0 d3 9e 3d f5 d7 07 3e
       -0.0127802305 0.17519416 0.07755232 0.13265975
000150 ee 9c 24 bd 4e 18 b5 3d b8 1e c7 3e f8 82 f3 3d
       -0.040188722 0.088425264 0.38890624 0.11890215
000160 89 d0 9b bd 08 76 f2 be 91 5a c4 3c 8e 20 94 3d
       -0.07608134 -0.47355676 0.023968967 0.07232772
000170 7c 8d f8 bd e5 b8 33 bd 26 8e 28 be 99 e1 56 bc
       -0.12136361 -0.0438775 -0.16460475 -0.01311531
000180 75 94 a1 3d a7 db 2c 3d c1 cf 9c bd d9 15 bf 3d
       0.07889644 0.042201664 -0.076568134 0.09330339
000190 52 08 f3 3c be b2 d2 bd 37 26 74 3d 5a 7a ee ba
       0.029667053 -0.102879986 0.059606757 -0.0018194423
0001a0 14 08 d5 3c 8f 44 08 3b d3 b5 55 bd 6c 27 28 be
       0.026004829 0.0020792817 -0.052175354 -0.16421288
0001b0 a5 ba b4 3b f1 02 10 3f db 8f bb 3c 50 b2 6c be
       0.005515414 0.5625449 0.022895744 -0.23114896
0001c0 1e f8 bb 3d 7a 41 8c be 2e 94 22 3d 60 a5 7c be
       0.09178184 -0.27393705 0.039692096 -0.2467246
0001d0 ba eb 91 3e 02 06 d0 be 03 a1 39 3e 52 dc 7c 3e
       0.28500158 -0.40629584 0.18127827 0.2469342
0001e0 06 40 95 bd ce 1d 63 bd 99 c8 6f 3d 3b a6 f6 bc
       -0.07287602 -0.055448346 0.058540914 -0.030108562
0001f0 a3 49 5f 3e b9 ff 11 bd 75 75 3b 3e 68 82 22 3d
       0.21805434 -0.035644267 0.18306525 0.039675146
000200 ca cc 55 bc f8 f9 92 3c df bc d3 3c 93 00 37 3c
       -0.013049314 0.01794146 0.025846897 0.0111695705
000210 24 e5 06 bd 51 16 9f bb 01 96 0c be c4 31 b8 bd
       -0.03293337 -0.0048549552 -0.13729097 -0.08993867
000220 2d c3 0e bd c6 b5 01 be 3c b8 b7 3b 8b de 28 3c
       -0.034854103 -0.12666997 0.0056066792 0.010306965
000230 dc b8 97 bd 69 4f 34 bd 13 ae 34 3f b1 f2 26 bd
       -0.07408306 -0.044021044 0.70578116 -0.040758792
000240 81 a3 0e 3e ee 51 71 3d 6f cf 28 bc d6 98 02 3e
       0.1392956 0.058916025 -0.010303362 0.12753615
000250 37 65 c0 3d fe 07 9e bd e8 51 f0 3d a1 8e 2d 3d
       0.09394305 -0.07716368 0.117343724 0.04237235
000260 95 7d 2a bd 2e 2f dc 3b 22 c4 0c 3d e2 d4 3c be
       -0.04162367 0.0067194914 0.034366734 -0.18440583
000270 5c 8f 89 bd 81 d2 fa bd 37 47 d3 bb 77 ed f9 be
       -0.06716797 -0.12247182 -0.0064476985 -0.48813984
000280 cc 44 54 bd ac e8 54 bc 16 b4 d0 3d 7b 55 59 bd
       -0.051823422 -0.012994926 0.10190599 -0.053060036
000290 d1 fd 36 3d 2f ec 11 3e fc 17 53 3b 61 84 a3 3d
       0.044675652 0.14250253 0.003221034 0.07984234
0002a0 aa 91 e6 3c 1d 50 40 3d c5 50 21 3e 6b 22 5a 3e
       0.02814563 0.046951402 0.15753467 0.21302192
0002b0 92 12 c3 3d 73 a0 73 bf 80 62 19 3e 83 ba 15 3e
       0.095250264 -0.951667 0.14978981 0.1462193
0002c0 26 68 dd bd 88 e8 07 bc 00 70 c8 bc e3 de 16 3d
       -0.1081088 -0.008295186 -0.024467468 0.036833655
0002d0 22 16 a7 bd dc f4 87 39 38 ef 49 ba e6 fc eb bd
       -0.081585184 0.0002593164 -0.0007703188 -0.11522846
0002e0 63 7a 0a 3d 93 c4 4b 3e a8 4f a0 3d 73 11 0e bd
       0.033808123 0.19899206 0.07827693 -0.03468461
0002f0 20 1b 41 be 02 a2 41 bd 98 fe b9 bd c9 78 e2 bd
       -0.18858004 -0.047273643 -0.09081763 -0.11058194
000300 2c 47 43 bc 31 28 4d 3d d5 bb d2 b9 68 59 20 bd
       -0.011918824 0.050087158 -0.00040194267 -0.039147764
000310 fd 89 5e 3e 13 d7 39 3d 7d c0 15 bb dc 64 a1 bd
       0.21732326 0.045371126 -0.0022850328 -0.078805655
000320 43 6d 2d 3e 6e 4c 91 bd 50 75 c7 3e e6 d9 84 3b
       0.16936211 -0.07094656 0.3895669 0.004054296
000330 09 5a 47 bf dd 98 a8 3c 04 90 b4 3e 10 1b b6 3d
       -0.7787176 0.020580703 0.35266125 0.088918805
000340 6d ae 7b 3d 23 24 d9 3d 75 30 00 3e 9d c8 c0 3d
       0.061445642 0.10602596 0.12518485 0.09413264
000350 1b b4 07 3e 8e 77 5f 3c fd ac 3e be 89 96 63 be
       0.13252299 0.013639344 -0.18620677 -0.22225393
000360 c7 2a 0c 3e ef 4b 64 be 13 74 3b 3e 34 bb 0d bd
       0.13688193 -0.22294591 0.18305998 -0.03460236
000370 6c cf 2e 3f e2 29 47 bd 14 f2 f2 bc 00 dd 33 bd
       0.6828525 -0.048623927 -0.029656447 -0.043911934
000380 cb ea 3f 3e 35 55 f1 bd 98 37 c0 bd 27 d3 aa bd
       0.1874191 -0.1178383 -0.09385604 -0.08341055
000390 bb b5 9d 3c 92 03 5d 3c 41 fb 1b 3d 9d 5f 76 3d
       0.019251695 0.013489621 0.03808141 0.060149778
0003a0 5e 92 b6 3d 88 1b d8 3c ea 06 da bd 03 6e 08 be
       0.08914636 0.026380315 -0.1064585 -0.13323216
0003b0 2f 86 da bb 73 59 74 3c 50 d4 47 bc 7d 12 9d 3d
       -0.006668828 0.0149139045 -0.012196615 0.07669542
0003c0 ba d3 a9 3c 63 74 3c 3d 19 98 86 bd e7 37 a7 bc
       0.020730842 0.046009433 -0.06571979 -0.020412399
0003d0 2c 29 ed 3d e2 f2 07 bd f0 90 09 3e 15 1f 1a 3e
       0.115801185 -0.033190615 0.13434196 0.1505092
0003e0 0d 00 42 bb 60 fa 2a be e9 7d 5a bc c8 23 66 bd
       -0.002960208 -0.16697073 -0.013335683 -0.056186467
0003f0 b1 3c 1c be da 35 30 bd 0b 6b 92 bd ab ed 3e bd
       -0.15257527 -0.043020107 -0.07149323 -0.046613377

net.input_encoder.layers.0.linear1.bias f4 [32]
000000 6c 03 a4 bd 8b 0b df 3d e6 b4 4b be 58 b7 e1 3c
       -0.08008465 0.108908735 -0.19893226 0.027553245
000010 d7 10 5e 3d 09 40 33 be 65 99 82 be e6 b5 38 bd
       0.05421528 -0.17504896 -0.25507656 -0.045095347
000020 71 1c ab be b9 aa 4f be b2 ad 8a 3e a9 6d 79 be
       -0.33420137 -0.2027997 0.27085644 -0.24358238
000030 e9 e6 4e be a5 ca b6 be e9 6b 27 bd 08 68 0b 3c
       -0.20205273 -0.3570148 -0.040874396 0.00850869
000040 a8 34 11 3e ed 5e fc bd 63 d5 ad be 17 ac 01 bc
       0.14180243 -0.12322793 -0.33951864 -0.007914565
000050 c3 48 0e 3d c1 6b 82 bd 3f 1f 96 bb e0 ec 45 bd
       0.03473736 -0.06368209 -0.0045813615 -0.048321605
000060 6e e4 26 be fc 55 54 3c 6d 3e 1c be aa 74 c6 bc
       -0.16298077 0.012959953 -0.15258189 -0.024225552
000070 ce 1d 85 3c c7 f8 56 be 6c 84 16 be fc 3d cf 3d
       0.016249564 -0.20993339 -0.14698952 0.101192445
